Audio2Midi/ModelData/features_model.onnx (onnx, 111305 bytes, 4 tensors)

model_1/cqt2010v2_1/conv1d_17/ExpandDims_1:0 f4 [1, 1, 1, 256]
0	0xb8e903db	-0.00011111024
1	0xb8ec899f	-0.00011278991
2	0x38f079d5	0.00011466785
3	0x38f5cade	0.00011720297
4	0xb8fb94c1	-0.0001199632
5	0xb9016915	-0.00012341545
6	0x39054abc	0.00012711709
7	0x3909f076	0.00013154917
8	0xb90edefd	-0.00013625245
9	0xb9149cde	-0.00014172817
10	0x391aa8bc	0.00014749443
11	0x39219035	0.00015407878
12	0xb928ca36	-0.00016097058
13	0xb930ed09	-0.0001687297
14	0x3939664d	0.00017681085
15	0x3942d694	0.00018581218
16	0xb94ca09d	-0.00019514789
17	0xb95770d0	-0.00020546024
18	0x39629d82	0.00021611716
19	0x396ee081	0.00022781083
20	0xb97b8232	-0.00023985727
21	0xb984a5a6	-0.0002530042
22	0x398bba66	0.00026651024
23	0x39936be5	0.00028118413
24	0xb99b4e39	-0.00029622184
25	0xb9a3d6d7	-0.0003124985
26	0x39ac90b7	0.00032914217
27	0x39b5faeb	0.0003470996
28	0xb9bf96a4	-0.00036542595
29	0xb9c9ed3f	-0.0003851447
30	0x39d4757e	0.0004052333
31	0x39dfc3b4	0.00042679685
32	0xb9eb4394	-0.00044873042
33	0xb9f79507	-0.00047222545
34	0x3a020c0f	0.00049609033
35	0x3a08bc78	0.00052160723
36	0xba0f85b0	-0.0005474938
37	0xba16c424	-0.0005751273
38	0x3a1e1b69	0.0006031306
39	0x3a25ee96	0.00063298026
40	0xba2ddaa4	-0.0006632006
41	0xba364998	-0.00069537153
42	0x3a3ed194	0.00072791544
43	0x3a47e3c9	0.000762519
44	0xba510f4f	-0.00079749984
45	0xba5accbf	-0.00083465496
46	0x3a64a3f5	0.0008721941
47	0x3a6f1529	0.00091202796
48	0xba79a0d3	-0.0009522561
49	0xba82677f	-0.0009949057
50	0x3a880c4a	0.0010379639
51	0x3a8e06d3	0.0010835774
52	0xba940fbb	-0.0011296192
53	0xba9a7321	-0.0011783579
54	0x3aa0e5c3	0.0012275506
55	0x3aa7b7ef	0.0012795905
56	0xbaae9a78	-0.0013321182
57	0xbab5e1ea	-0.0013876532
58	0x3abd3b27	0.0014437184
59	0x3ac4ff0d	0.0015029624
60	0xbaccd68b	-0.0015627904
61	0xbad51ede	-0.001625981
62	0x3add7d06	0.0016898222
63	0x3ae652ae	0.0017572248
64	0xbaef40eb	-0.00182536
65	0xbaf8ade7	-0.0018972725
66	0x3b011b6b	0.001970018
67	0x3b062337	0.0020467767
68	0xbb0b3b09	-0.0021244904
69	0xbb109a8a	-0.0022064769
70	0x3b160c8c	0.0022895662
71	0x3b1bcb0e	0.0023772153
72	0xbb219f13	-0.0024661466
73	0xbb27c4f7	-0.0025599578
74	0x3b2e03ff	0.0026552675
75	0x3b349aee	0.0027558166
76	0xbb3b4f63	-0.0028581254
77	0xbb426296	-0.0029660813
78	0x3b49989a	0.0030761124
79	0x3b51352a	0.0031922557
80	0xbb58faf4	-0.0033108564
81	0xbb613049	-0.0034361056
82	0x3b69969c	0.0035642749
83	0x3b7276f4	0.003699717
84	0xbb7b91bc	-0.0038386425
85	0xbb82996c	-0.0039855745
86	0x3b878cf7	0.0041366774
87	0x3b8ccafb	0.004296658
88	0xbb923314	-0.0044616554
89	0xbb97ee6a	-0.0046365755
90	0x3b9ddc9e	0.0048175594
91	0x3ba428b3	0.0050097345
92	0xbbaab298	-0.0052092783
93	0xbbb1a776	-0.005421574
94	0x3bb8e7ed	0.005642882
95	0x3bc0a3ac	0.005878886
96	0xbbc8bc8e	-0.006125993
97	0xbbd1655b	-0.0063902563
98	0x3bda81e7	0.0066683176
99	0x3be448e5	0.0069666975
100	0xbbeea139	-0.007282403
101	0xbbf9c6bb	-0.0076225675
102	0x3c02d27b	0.007984753
103	0x3c093f66	0.008376932
104	0xbc102371	-0.008797512
105	0xbc17a50f	-0.009255662
106	0x3c1fc30e	0.0097510945
107	0x3c28ab51	0.010294751
108	0xbc326556	-0.010888418
109	0xbc3d2a94	-0.011545796
110	0x3c4910c0	0.01227206
111	0x3c566452	0.013085442
112	0xbc655368	-0.013996936
113	0xbc764b97	-0.01503267
114	0x3c84d3c3	0.016214257
115	0x3c900986	0.017582666
116	0xbc9d2065	-0.019180486
117	0xbcacaeb1	-0.021079393
118	0x3cbf6e83	0.023368126
119	0x3cd68db8	0.026190624
120	0xbcf3be35	-0.029753784
121	0xbd0ced70	-0.034406126
122	0x3d26d971	0.040734712
123	0x3d4c3e81	0.049864296
124	0xbd8374e6	-0.06418781
125	0xbdb835fc	-0.08994672
126	0x3e1999c6	0.15000066
127	0x3ee678fa	0.45014173
128	0x3ee678fa	0.45014173
129	0x3e1999c6	0.15000066
130	0xbdb835fc	-0.08994672
131	0xbd8374e6	-0.06418781
132	0x3d4c3e81	0.049864296
133	0x3d26d971	0.040734712
134	0xbd0ced70	-0.034406126
135	0xbcf3be35	-0.029753784
136	0x3cd68db8	0.026190624
137	0x3cbf6e83	0.023368126
138	0xbcacaeb1	-0.021079393
139	0xbc9d2065	-0.019180486
140	0x3c900986	0.017582666
141	0x3c84d3c3	0.016214257
142	0xbc764b97	-0.01503267
143	0xbc655368	-0.013996936
144	0x3c566452	0.013085442
145	0x3c4910c0	0.01227206
146	0xbc3d2a94	-0.011545796
147	0xbc326556	-0.010888418
148	0x3c28ab51	0.010294751
149	0x3c1fc30e	0.0097510945
150	0xbc17a50f	-0.009255662
151	0xbc102371	-0.008797512
152	0x3c093f66	0.008376932
153	0x3c02d27b	0.007984753
154	0xbbf9c6bb	-0.0076225675
155	0xbbeea139	-0.007282403
156	0x3be448e5	0.0069666975
157	0x3bda81e7	0.0066683176
158	0xbbd1655b	-0.0063902563
159	0xbbc8bc8e	-0.006125993
160	0x3bc0a3ac	0.005878886
161	0x3bb8e7ed	0.005642882
162	0xbbb1a776	-0.005421574
163	0xbbaab298	-0.0052092783
164	0x3ba428b3	0.0050097345
165	0x3b9ddc9e	0.0048175594
166	0xbb97ee6a	-0.0046365755
167	0xbb923314	-0.0044616554
168	0x3b8ccafb	0.004296658
169	0x3b878cf7	0.0041366774
170	0xbb82996c	-0.0039855745
171	0xbb7b91bc	-0.0038386425
172	0x3b7276f4	0.003699717
173	0x3b69969c	0.0035642749
174	0xbb613049	-0.0034361056
175	0xbb58faf4	-0.0033108564
176	0x3b51352a	0.0031922557
177	0x3b49989a	0.0030761124
178	0xbb426296	-0.0029660813
179	0xbb3b4f63	-0.0028581254
180	0x3b349aee	0.0027558166
181	0x3b2e03ff	0.0026552675
182	0xbb27c4f7	-0.0025599578
183	0xbb219f13	-0.0024661466
184	0x3b1bcb0e	0.0023772153
185	0x3b160c8c	0.0022895662
186	0xbb109a8a	-0.0022064769
187	0xbb0b3b09	-0.0021244904
188	0x3b062337	0.0020467767
189	0x3b011b6b	0.001970018
190	0xbaf8ade7	-0.0018972725
191	0xbaef40eb	-0.00182536
192	0x3ae652ae	0.0017572248
193	0x3add7d06	0.0016898222
194	0xbad51ede	-0.001625981
195	0xbaccd68b	-0.0015627904
196	0x3ac4ff0d	0.0015029624
197	0x3abd3b27	0.0014437184
198	0xbab5e1ea	-0.0013876532
199	0xbaae9a78	-0.0013321182
200	0x3aa7b7ef	0.0012795905
201	0x3aa0e5c3	0.0012275506
202	0xba9a7321	-0.0011783579
203	0xba940fbb	-0.0011296192
204	0x3a8e06d3	0.0010835774
205	0x3a880c4a	0.0010379639
206	0xba82677f	-0.0009949057
207	0xba79a0d3	-0.0009522561
208	0x3a6f1529	0.00091202796
209	0x3a64a3f5	0.0008721941
210	0xba5accbf	-0.00083465496
211	0xba510f4f	-0.00079749984
212	0x3a47e3c9	0.000762519
213	0x3a3ed194	0.00072791544
214	0xba364998	-0.00069537153
215	0xba2ddaa4	-0.0006632006
216	0x3a25ee96	0.00063298026
217	0x3a1e1b69	0.0006031306
218	0xba16c424	-0.0005751273
219	0xba0f85b0	-0.0005474938
220	0x3a08bc78	0.00052160723
221	0x3a020c0f	0.00049609033
222	0xb9f79507	-0.00047222545
223	0xb9eb4394	-0.00044873042
224	0x39dfc3b4	0.00042679685
225	0x39d4757e	0.0004052333
226	0xb9c9ed3f	-0.0003851447
227	0xb9bf96a4	-0.00036542595
228	0x39b5faeb	0.0003470996
229	0x39ac90b7	0.00032914217
230	0xb9a3d6d7	-0.0003124985
231	0xb99b4e39	-0.00029622184
232	0x39936be5	0.00028118413
233	0x398bba66	0.00026651024
234	0xb984a5a6	-0.0002530042
235	0xb97b8232	-0.00023985727
236	0x396ee081	0.00022781083
237	0x39629d82	0.00021611716
238	0xb95770d0	-0.00020546024
239	0xb94ca09d	-0.00019514789
240	0x3942d694	0.00018581218
241	0x3939664d	0.00017681085
242	0xb930ed09	-0.0001687297
243	0xb928ca36	-0.00016097058
244	0x39219035	0.00015407878
245	0x391aa8bc	0.00014749443
246	0xb9149cde	-0.00014172817
247	0xb90edefd	-0.00013625245
248	0x3909f076	0.00013154917
249	0x39054abc	0.00012711709
250	0xb9016915	-0.00012341545
251	0xb8fb94c1	-0.0001199632
252	0x38f5cade	0.00011720297
253	0x38f079d5	0.00011466785
254	0xb8ec899f	-0.00011278991
255	0xb8e903db	-0.00011111024

model_1/cqt2010v2_1/conv1d_16/ExpandDims_1:0 f4 [36, 1, 1, 256]
0	0x00000000	0.0
1	0x00000000	0.0
2	0x00000000	0.0
3	0x00000000	0.0
4	0x00000000	0.0
5	0x00000000	0.0
6	0x00000000	0.0
7	0x00000000	0.0
8	0x00000000	0.0
9	0x00000000	0.0
10	0x00000000	0.0
11	0x00000000	0.0
12	0x00000000	0.0
13	0x00000000	0.0
14	0x00000000	0.0
15	0x00000000	0.0
16	0x00000000	0.0
17	0x00000000	0.0
18	0x00000000	0.0
19	0x00000000	0.0
20	0x00000000	0.0
21	0x3590cf12	1.0789101e-06
22	0xb6d10297	-6.228987e-06
23	0xb742bcaa	-1.1607228e-05
24	0x37b956ca	2.2094133e-05
25	0x381abb41	3.6890855e-05
26	0xb831faac	-4.2433545e-05
27	0xb8a7d031	-8.001959e-05
28	0x388028b2	6.111096e-05
29	0x391563c0	0.00014246907
30	0xb895b7c1	-7.1391005e-05
31	0xb96ad095	-0.00022393682
32	0x388b271d	6.635322e-05
33	0x39a8f61e	0.0003222683
34	0xb824f1ca	-3.932583e-05
35	0xb9e34461	-0.0004334776
36	0xb7838920	-1.568027e-05
37	0x3a10aaf1	0.00055186363
38	0x38d92d12	0.00010355761
39	0xba2fb18d	-0.00067021773
40	0xb96eca26	-0.00022772755
41	0x3a4c80b2	0.00078011595
42	0x39cc6127	0.00038982296
43	0xba64a9fd	-0.000872284
44	0xba1a84ec	-0.00058944407
45	0x3a75a271	0.0009370214
46	0x3a5801b9	0.0008240003
47	0xba7ce1ad	-0.00096466654
48	0xba8eb0f5	-0.0010886478
49	0x3a7802a6	0.0009460844
50	0x3ab465e7	0.001376328
51	0xba64e479	-0.0008731555
52	0xbadbed4d	-0.0016779095
53	0x3a41c9ef	0.0007392456
54	0x3b01eba8	0.00198243
55	0xba0d7659	-0.00053963583
56	0xbb1540f6	-0.0022774315
57	0x398e8cbe	0.00027189212
58	0x3b27137a	0.0025493787
59	0x3885e287	6.384128e-05
60	0xbb367635	-0.0027841453
61	0xb9f39b16	-0.0004646412
62	0x3b427b43	0.002967552
63	0x3a726818	0.00092470786
64	0xbb4a3d60	-0.0030859336
65	0xbabc234e	-0.0014353783
66	0x3b4ce9a0	0.003126718
67	0x3b021b0d	0.001985255
68	0xbb49c8e3	-0.0030789904
69	0xbb27cd2c	-0.002560447
70	0x3b4048b5	0.0029340212
71	0x3b4e1b01	0.00314492
72	0xbb300339	-0.002685739
73	0xbb73db1d	-0.003720946
74	0x3b18c5bf	0.0023311225
75	0x3b8be84a	0.0042696344
76	0xbaf52b9d	-0.0018705014
77	0xbb9c5a8c	-0.004771536
78	0x3aab689e	0.0013077443
79	0x3baaa1e7	0.0052072885
80	0xba2a7aca	-0.00065032823
81	0xbbb62254	-0.0055582915
82	0xb8be3fc6	-9.071785e-05
83	0x3bbe4bd4	0.0058073793
84	0x3a6c3102	0.0009009988
85	0xbbc29feb	-0.005939474
86	0xbae7169d	-0.0017630641
87	0x3bc2b6aa	0.0059421854
88	0x3b2e1e4d	0.0026568354
89	0xbbbe432a	-0.0058063464
90	0xbb695146	-0.0035601421
91	0x3bb51740	0.0055264533
92	0x3b91cbce	0.0044493442
93	0xbba72642	-0.0051009962
94	0xbbadabdb	-0.005300028
95	0x3b9486ca	0.0045326697
96	0x3bc77bb5	0.006087745
97	0xbb7ae6ab	-0.0038284461
98	0xbbde746e	-0.006788782
99	0x3b449371	0.0029995108
100	0x3bf1dba0	0.0073809177
101	0xbb0712cb	-0.0020610567
102	0xbc0084cb	-0.00784416
103	0x3a874240	0.0010319427
104	0x3c05b780	0.008161426
105	0x3889efce	6.577336e-05
106	0xbc084cfc	-0.008319136
107	0xba9e423a	-0.001207418
108	0x3c081d1f	0.008307724
109	0x3b1b1543	0.0023663796
110	0xbc051232	-0.008122014
111	0xbb665993	-0.0035148605
112	0x3bfe53ed	0.0077614696
113	0x3b978aa2	0.0046246806
114	0xbbecec2d	-0.007230303
115	0xbbb9bb82	-0.0056681046
116	0x3bd637f4	0.006537432
117	0x3bd8e16b	0.006618669
118	0xbbbaa7f0	-0.0056962892
119	0xbbf42fb1	-0.0074519743
120	0x3b9acfe6	0.0047244905
121	0x3c05789a	0.008146429
122	0xbb6ec583	-0.0036433644
123	0xbc0e46f0	-0.008683905
124	0x3b225b50	0.0024773665
125	0x3c1447ae	0.009050293
126	0xbaa448cb	-0.0012533901
127	0xbc175255	-0.009235938
128	0x00000000	0.0
129	0x3c175255	0.009235938
130	0x3aa448cb	0.0012533901
131	0xbc1447ae	-0.009050293
132	0xbb225b50	-0.0024773665
133	0x3c0e46f0	0.008683905
134	0x3b6ec583	0.0036433644
135	0xbc05789a	-0.008146429
136	0xbb9acfe6	-0.0047244905
137	0x3bf42fb1	0.0074519743
138	0x3bbaa7f0	0.0056962892
139	0xbbd8e16b	-0.006618669
140	0xbbd637f4	-0.006537432
141	0x3bb9bb82	0.0056681046
142	0x3becec2d	0.007230303
143	0xbb978aa2	-0.0046246806
144	0xbbfe53ed	-0.0077614696
145	0x3b665993	0.0035148605
146	0x3c051232	0.008122014
147	0xbb1b1543	-0.0023663796
148	0xbc081d1f	-0.008307724
149	0x3a9e423a	0.001207418
150	0x3c084cfc	0.008319136
151	0xb889efce	-6.577336e-05
152	0xbc05b780	-0.008161426
153	0xba874240	-0.0010319427
154	0x3c0084cb	0.00784416
155	0x3b0712cb	0.0020610567
156	0xbbf1dba0	-0.0073809177
157	0xbb449371	-0.0029995108
158	0x3bde746e	0.006788782
159	0x3b7ae6ab	0.0038284461
160	0xbbc77bb5	-0.006087745
161	0xbb9486ca	-0.0045326697
162	0x3badabdb	0.005300028
163	0x3ba72642	0.0051009962
164	0xbb91cbce	-0.0044493442
165	0xbbb51740	-0.0055264533
166	0x3b695146	0.0035601421
167	0x3bbe432a	0.0058063464
168	0xbb2e1e4d	-0.0026568354
169	0xbbc2b6aa	-0.0059421854
170	0x3ae7169d	0.0017630641
171	0x3bc29feb	0.005939474
172	0xba6c3102	-0.0009009988
173	0xbbbe4bd4	-0.0058073793
174	0x38be3fc6	9.071785e-05
175	0x3bb62254	0.0055582915
176	0x3a2a7aca	0.00065032823
177	0xbbaaa1e7	-0.0052072885
178	0xbaab689e	-0.0013077443
179	0x3b9c5a8c	0.004771536
180	0x3af52b9d	0.0018705014
181	0xbb8be84a	-0.0042696344
182	0xbb18c5bf	-0.0023311225
183	0x3b73db1d	0.003720946
184	0x3b300339	0.002685739
185	0xbb4e1b01	-0.00314492
186	0xbb4048b5	-0.0029340212
187	0x3b27cd2c	0.002560447
188	0x3b49c8e3	0.0030789904
189	0xbb021b0d	-0.001985255
190	0xbb4ce9a0	-0.003126718
191	0x3abc234e	0.0014353783
192	0x3b4a3d60	0.0030859336
193	0xba726818	-0.00092470786
194	0xbb427b43	-0.002967552
195	0x39f39b16	0.0004646412
196	0x3b367635	0.0027841453
197	0xb885e287	-6.384128e-05
198	0xbb27137a	-0.0025493787
199	0xb98e8cbe	-0.00027189212
200	0x3b1540f6	0.0022774315
201	0x3a0d7659	0.00053963583
202	0xbb01eba8	-0.00198243
203	0xba41c9ef	-0.0007392456
204	0x3adbed4d	0.0016779095
205	0x3a64e479	0.0008731555
206	0xbab465e7	-0.001376328
207	0xba7802a6	-0.0009460844
208	0x3a8eb0f5	0.0010886478
209	0x3a7ce1ad	0.00096466654
210	0xba5801b9	-0.0008240003
211	0xba75a271	-0.0009370214
212	0x3a1a84ec	0.00058944407
213	0x3a64a9fd	0.000872284
214	0xb9cc6127	-0.00038982296
215	0xba4c80b2	-0.00078011595
216	0x396eca26	0.00022772755
217	0x3a2fb18d	0.00067021773
218	0xb8d92d12	-0.00010355761
219	0xba10aaf1	-0.00055186363
220	0x37838920	1.568027e-05
221	0x39e34461	0.0004334776
222	0x3824f1ca	3.932583e-05
223	0xb9a8f61e	-0.0003222683
224	0xb88b271d	-6.635322e-05
225	0x396ad095	0.00022393682
226	0x3895b7c1	7.1391005e-05
227	0xb91563c0	-0.00014246907
228	0xb88028b2	-6.111096e-05
229	0x38a7d031	8.001959e-05
230	0x3831faac	4.2433545e-05
231	0xb81abb41	-3.6890855e-05
232	0xb7b956ca	-2.2094133e-05
233	0x3742bcaa	1.1607228e-05
234	0x36d10297	6.228987e-06
235	0xb590cf12	-1.0789101e-06
236	0x00000000	0.0
237	0x00000000	0.0
238	0x00000000	0.0
239	0x00000000	0.0
240	0x00000000	0.0
241	0x00000000	0.0
242	0x00000000	0.0
243	0x00000000	0.0
244	0x00000000	0.0
245	0x00000000	0.0
246	0x00000000	0.0
247	0x00000000	0.0
248	0x00000000	0.0
249	0x00000000	0.0
250	0x00000000	0.0
251	0x00000000	0.0
252	0x00000000	0.0
253	0x00000000	0.0
254	0x00000000	0.0
255	0x00000000	0.0

model_1/cqt2010v2_1/conv1d_15/ExpandDims_1:0 f4 [36, 1, 1, 256]
0	0x00000000	0.0
1	0x00000000	0.0
2	0x00000000	0.0
3	0x00000000	0.0
4	0x00000000	0.0
5	0x00000000	0.0
6	0x00000000	0.0
7	0x00000000	0.0
8	0x00000000	0.0
9	0x00000000	0.0
10	0x00000000	0.0
11	0x00000000	0.0
12	0x00000000	0.0
13	0x00000000	0.0
14	0x00000000	0.0
15	0x00000000	0.0
16	0x00000000	0.0
17	0x00000000	0.0
18	0x00000000	0.0
19	0x00000000	0.0
20	0x00000000	0.0
21	0xb5db648a	-1.6346032e-06
22	0xb69f564d	-4.748616e-06
23	0x375e5833	1.3252767e-05
24	0x37ba0701	2.217619e-05
25	0xb8068242	-3.20694e-05
26	0xb86b4486	-5.6092184e-05
27	0x385bbf15	5.2391628e-05
28	0x38e42e52	0.00010880515
29	0xb88e0c59	-6.7733876e-05
30	0xb93db475	-0.0001809167
31	0x38955926	7.121479e-05
32	0x398e3013	0.0002712017
33	0xb86acfde	-5.598354e-05
34	0xb9c56fe4	-0.00037658133
35	0x37835580	1.5656231e-05
36	0x3a01066e	0.00049219176
37	0x3867c47c	5.5257682e-05
38	0xba205033	-0.0006115466
39	0xb928c70b	-0.00016095878
40	0x3a3e85ef	0.00072678825
41	0x399f637b	0.00030400962
42	0xba595272	-0.00082901784
43	0xb9fe4e99	-0.00048505215
44	0x3a6e3549	0.00090869196
45	0x3a382f09	0.0007026052
46	0xba7aa0be	-0.00095606956
47	0xba79cf99	-0.00095295307
48	0x3a7c19fb	0.00096169085
49	0x3aa13c6c	0.0012301332
50	0xba7059f9	-0.00091686804
51	0xbac804f7	-0.0015260269
52	0x3a556dde	0.00081416767
53	0x3aefef15	0.0018305505
54	0xba29d555	-0.00064786273
55	0xbb0bb821	-0.0021319466
56	0x39d93b18	0.00041433494
57	0x3b1e6940	0.002417162
58	0xb8ebbcb7	-0.00011240824
59	0xbb2f21c6	-0.0026723011
60	0xb9866dc6	-0.0002564026
61	0x3b3cf317	0.0028831416
62	0x3a34498c	0.00068774144
63	0xbb46f269	-0.003035689
64	0xba99ed42	-0.0011743682
65	0x3b4c4270	0.003116753
66	0x3adfa38e	0.0017062293
67	0xbb4c1cfe	-0.003114521
68	0xbb14cf12	-0.0022706431
69	0x3b45dc39	0.0030191077
70	0x3b3af2a5	0.0028525975
71	0xbb390310	-0.0028230585
72	0xbb61203d	-0.003435149
73	0x3b254480	0.002521783
74	0x3b8311bd	0.0039999173
75	0xbb0a8972	-0.0021139053
76	0xbb945cb6	-0.0045276536
77	0x3ad1e9a9	0.0016015071
78	0x3ba3cd8e	0.0049988693
79	0xba81cba5	-0.000990261
80	0xbbb0c454	-0.005394498
81	0x3997bf53	0.00028943512
82	0x3bbaaa52	0.0056965733
83	0x39fff8ca	0.00048822752
84	0xbbc0f7a1	-0.0058888947
85	0xbaade698	-0.0013267575
86	0x3bc33872	0.0059576565
87	0x3b10a8da	0.00220733
88	0xbbc111d7	-0.0058920193
89	0xbb4bbc22	-0.0031087478
90	0x3bba45dd	0.005684598
91	0x3b8355bb	0.0040080226
92	0xbbaeb6d1	-0.005331852
93	0xbb9ff11b	-0.004881037
94	0x3b9e6984	0.004834356
95	0x3bbae276	0.005703266
96	0xbb898683	-0.0041969432
97	0xbbd35efa	-0.006450531
98	0x3b60b42f	0.0034287085
99	0x3be8a535	0.0070997723
100	0xbb26a661	-0.002542876
101	0xbbfa035a	-0.007629794
102	0x3acc0438	0.0015565222
103	0x3c036e9c	0.008021977
104	0xba007edd	-0.00049017166
105	0xbc0758d1	-0.008260922
106	0xba25dddb	-0.00063273095
107	0x3c088f86	0.008335
108	0x3aea276b	0.0017864531
109	0xbc06f3a5	-0.0082368
110	0xbb40eaf5	-0.002943692
111	0x3c02791b	0.007963444
112	0x3b8592f6	0.004076357
113	0xbbf64f33	-0.0075167655
114	0xbba8f6e5	-0.0051563852
115	0x3be23571	0.0069033434
116	0x3bc9bd1c	0.006156577
117	0xbbc902f7	-0.0061343866
118	0xbbe70f73	-0.0070514022
119	0x3bab3a6b	0.00522547
120	0x3c001625	0.00781778
121	0xbb897fb2	-0.0041961307
122	0xbc0a3630	-0.008435771
123	0x3b492704	0.003069342
124	0x3c11a3fe	0.008889196
125	0xbaf537fb	-0.00187087
126	0xbc162d87	-0.009166128
127	0x3a24c4d6	0.00062854344
128	0x3c17b426	0.009259259
129	0x3a24c4d6	0.00062854344
130	0xbc162d87	-0.009166128
131	0xbaf537fb	-0.00187087
132	0x3c11a3fe	0.008889196
133	0x3b492704	0.003069342
134	0xbc0a3630	-0.008435771
135	0xbb897fb2	-0.0041961307
136	0x3c001625	0.00781778
137	0x3bab3a6b	0.00522547
138	0xbbe70f73	-0.0070514022
139	0xbbc902f7	-0.0061343866
140	0x3bc9bd1c	0.006156577
141	0x3be23571	0.0069033434
142	0xbba8f6e5	-0.0051563852
143	0xbbf64f33	-0.0075167655
144	0x3b8592f6	0.004076357
145	0x3c02791b	0.007963444
146	0xbb40eaf5	-0.002943692
147	0xbc06f3a5	-0.0082368
148	0x3aea276b	0.0017864531
149	0x3c088f86	0.008335
150	0xba25dddb	-0.00063273095
151	0xbc0758d1	-0.008260922
152	0xba007edd	-0.00049017166
153	0x3c036e9c	0.008021977
154	0x3acc0438	0.0015565222
155	0xbbfa035a	-0.007629794
156	0xbb26a661	-0.002542876
157	0x3be8a535	0.0070997723
158	0x3b60b42f	0.0034287085
159	0xbbd35efa	-0.006450531
160	0xbb898683	-0.0041969432
161	0x3bbae276	0.005703266
162	0x3b9e6984	0.004834356
163	0xbb9ff11b	-0.004881037
164	0xbbaeb6d1	-0.005331852
165	0x3b8355bb	0.0040080226
166	0x3bba45dd	0.005684598
167	0xbb4bbc22	-0.0031087478
168	0xbbc111d7	-0.0058920193
169	0x3b10a8da	0.00220733
170	0x3bc33872	0.0059576565
171	0xbaade698	-0.0013267575
172	0xbbc0f7a1	-0.0058888947
173	0x39fff8ca	0.00048822752
174	0x3bbaaa52	0.0056965733
175	0x3997bf53	0.00028943512
176	0xbbb0c454	-0.005394498
177	0xba81cba5	-0.000990261
178	0x3ba3cd8e	0.0049988693
179	0x3ad1e9a9	0.0016015071
180	0xbb945cb6	-0.0045276536
181	0xbb0a8972	-0.0021139053
182	0x3b8311bd	0.0039999173
183	0x3b254480	0.002521783
184	0xbb61203d	-0.003435149
185	0xbb390310	-0.0028230585
186	0x3b3af2a5	0.0028525975
187	0x3b45dc39	0.0030191077
188	0xbb14cf12	-0.0022706431
189	0xbb4c1cfe	-0.003114521
190	0x3adfa38e	0.0017062293
191	0x3b4c4270	0.003116753
192	0xba99ed42	-0.0011743682
193	0xbb46f269	-0.003035689
194	0x3a34498c	0.00068774144
195	0x3b3cf317	0.0028831416
196	0xb9866dc6	-0.0002564026
197	0xbb2f21c6	-0.0026723011
198	0xb8ebbcb7	-0.00011240824
199	0x3b1e6940	0.002417162
200	0x39d93b18	0.00041433494
201	0xbb0bb821	-0.0021319466
202	0xba29d555	-0.00064786273
203	0x3aefef15	0.0018305505
204	0x3a556dde	0.00081416767
205	0xbac804f7	-0.0015260269
206	0xba7059f9	-0.00091686804
207	0x3aa13c6c	0.0012301332
208	0x3a7c19fb	0.00096169085
209	0xba79cf99	-0.00095295307
210	0xba7aa0be	-0.00095606956
211	0x3a382f09	0.0007026052
212	0x3a6e3549	0.00090869196
213	0xb9fe4e99	-0.00048505215
214	0xba595272	-0.00082901784
215	0x399f637b	0.00030400962
216	0x3a3e85ef	0.00072678825
217	0xb928c70b	-0.00016095878
218	0xba205033	-0.0006115466
219	0x3867c47c	5.5257682e-05
220	0x3a01066e	0.00049219176
221	0x37835580	1.5656231e-05
222	0xb9c56fe4	-0.00037658133
223	0xb86acfde	-5.598354e-05
224	0x398e3013	0.0002712017
225	0x38955926	7.121479e-05
226	0xb93db475	-0.0001809167
227	0xb88e0c59	-6.7733876e-05
228	0x38e42e52	0.00010880515
229	0x385bbf15	5.2391628e-05
230	0xb86b4486	-5.6092184e-05
231	0xb8068242	-3.20694e-05
232	0x37ba0701	2.217619e-05
233	0x375e5833	1.3252767e-05
234	0xb69f564d	-4.748616e-06
235	0xb5db648a	-1.6346032e-06
236	0x00000000	0.0
237	0x00000000	0.0
238	0x00000000	0.0
239	0x00000000	0.0
240	0x00000000	0.0
241	0x00000000	0.0
242	0x00000000	0.0
243	0x00000000	0.0
244	0x00000000	0.0
245	0x00000000	0.0
246	0x00000000	0.0
247	0x00000000	0.0
248	0x00000000	0.0
249	0x00000000	0.0
250	0x00000000	0.0
251	0x00000000	0.0
252	0x00000000	0.0
253	0x00000000	0.0
254	0x00000000	0.0
255	0x00000000	0.0

model_1/cqt2010v2_1/Sqrt:0 f4 [309, 1, 1]
0	0x434b16b2	203.08865
1	0x43492449	201.14174
2	0x43473749	199.21596
3	0x43454e8f	197.30687
4	0x43436ae1	195.4175
5	0x43418b14	193.54327
6	0x433fb09a	191.68985
7	0x433dda42	189.85257
8	0x433c08da	188.03458
9	0x433a3bd5	186.23372
10	0x433872a5	184.44783
11	0x4336aecb	182.68279
12	0x4334ee51	180.93092
13	0x433332be	179.19821
14	0x43317b7e	177.48239
15	0x432fc7f7	175.78111
16	0x432e1901	174.09767
17	0x432c6e01	172.4297
18	0x432ac713	170.77763
19	0x43292457	169.14195
20	0x43278528	167.52014
21	0x4325ea67	165.91563
22	0x4324536e	164.3259
23	0x4322c058	162.75134
24	0x43213143	161.19243
25	0x431fa580	159.64648
26	0x431e1df7	158.11705
27	0x431c9ac7	156.6046
28	0x431b1a6b	155.1032
29	0x43199dcd	153.61641
30	0x43182509	152.14467
31	0x4316b03c	150.68842
32	0x43153ea9	149.24477
33	0x4313d067	147.81407
34	0x43126590	146.39673
35	0x4310ff1e	144.99655
36	0x430f9b6b	143.6071
37	0x430e3a8b	142.22868
38	0x430cde65	140.86873
39	0x430b845c	139.51703
40	0x430a2e59	138.18105
41	0x4308db8b	136.85759
42	0x43078c0b	135.54704
43	0x43063efd	134.24605
44	0x4304f660	132.9624
45	0x4303b064	131.68903
46	0x43026d1d	130.42622
47	0x43012d9d	129.17818
48	0x42ffdffe	127.937485
49	0x42fd6caf	126.71227
50	0x42faff7d	125.499
51	0x42f89897	124.29803
52	0x42f63617	123.105644
53	0x42f3da38	121.92621
54	0x42f1852b	120.76009
55	0x42ef34ff	119.60351
56	0x42ece9da	118.45674
57	0x42eaa3e1	117.320076
58	0x42e8656e	116.198105
59	0x42e62a48	115.08258
60	0x42e3f704	113.98245
61	0x42e1c756	112.88933
62	0x42df9da1	111.80787
63	0x42dd7a14	110.738434
64	0x42db5a85	109.676796
65	0x42d93f14	108.6232
66	0x42d72a41	107.58253
67	0x42d51c3d	106.55515
68	0x42d31060	105.53198
69	0x42d10ba3	104.52273
70	0x42cf0946	103.51811
71	0x42cd0e5c	102.528046
72	0x42cb1896	101.54802
73	0x42c9258f	100.57336
74	0x42c737ee	99.60924
75	0x42c54fdb	98.65597
76	0x42c36ae1	97.70875
77	0x42c18bbd	96.77293
78	0x42bfb29b	95.84884
79	0x42bdda42	94.926285
80	0x42bc0ae4	94.02127
81	0x42ba3c85	93.1182
82	0x42b874ba	92.22798
83	0x42b6b0e5	91.3455
84	0x42b4ee51	90.46546
85	0x42b332be	89.599106
86	0x42b17b7e	88.741196
87	0x42afc8b1	87.891975
88	0x42ae1a7a	87.05171
89	0x42ac6e01	86.21485
90	0x42aac953	85.39321
91	0x42a9269c	84.57541
92	0x42a785ec	83.761566
93	0x42a5ea67	82.95782
94	0x42a45435	82.16447
95	0x42a2c058	81.37567
96	0x42a1320e	80.59776
97	0x429fa64d	79.82481
98	0x429e2064	79.06326
99	0x429c9d3b	78.30709
100	0x429b1ce5	77.556435
101	0x42999f77	76.811455
102	0x42982509	76.072334
103	0x4296b116	75.34587
104	0x42954060	74.62573
105	0x4293d300	73.91211
106	0x42926590	73.198364
107	0x4290ff1e	72.498276
108	0x428f9c4f	71.80529
109	0x428e3d3f	71.11962
110	0x428cde65	70.434364
111	0x428b871c	69.763885
112	0x428a3033	69.09414
113	0x4288dd6a	68.43245
114	0x42878ee0	67.77905
115	0x428640e5	67.12675
116	0x4284f756	66.48308
117	0x4283b256	65.84831
118	0x42826e18	65.21503
119	0x42812e9a	64.59102
120	0x427fdffe	63.968742
121	0x427d6caf	63.356136
122	0x427b0392	62.753487
123	0x42789cb6	62.153038
124	0x4276382c	61.554855
125	0x4273de6b	60.967205
126	0x4271874a	60.38212
127	0x426f3b6b	59.808025
128	0x426ce9da	59.22837
129	0x426aa3e1	58.660038
130	0x426869d6	58.103355
131	0x42662a48	57.54129
132	0x4263f704	56.991226
133	0x4261c756	56.444664
134	0x425fa480	55.910645
135	0x425d7c63	55.37147
136	0x425b6186	54.845238
137	0x42594170	54.313904
138	0x42572f03	53.79591
139	0x4255210b	53.28227
140	0x425317a7	52.773098
141	0x425112fb	52.268536
142	0x424f0946	51.759056
143	0x424d0e5c	51.264023
144	0x424b1896	50.77401
145	0x4249281b	50.289165
146	0x42473d12	49.80964
147	0x424557a4	49.335587
148	0x42436d80	48.856934
149	0x424193ad	48.394215
150	0x423fb547	47.92703
151	0x423ddcf5	47.46578
152	0x423c0ae4	47.010635
153	0x423a3f45	46.561787
154	0x42387a47	46.11941
155	0x4236b0e5	45.67275
156	0x4234ee51	45.23273
157	0x423332be	44.799553
158	0x42317e61	44.373417
159	0x422fd16e	43.95452
160	0x422e205b	43.531597
161	0x422c76e9	43.116123
162	0x422ac953	42.696606
163	0x42292fb1	42.296574
164	0x422785ec	41.880783
165	0x4225f093	41.484936
166	0x42245753	41.085278
167	0x4222c6a3	40.69398
168	0x4221320e	40.29888
169	0x421fa64d	39.912403
170	0x421e23a1	39.534794
171	0x421c9d3b	39.153545
172	0x421b2032	38.78144
173	0x42199f77	38.405727
174	0x42182866	38.03945
175	0x4216bb47	37.682888
176	0x42154aaa	37.322914
177	0x4213d677	36.95944
178	0x42126c8e	36.60601
179	0x4210ff1e	36.249138
180	0x420f9c4f	35.902645
181	0x420e4471	35.566837
182	0x420ce94c	35.22783
183	0x420b8ac8	34.88553
184	0x420a379c	34.554306
185	0x4208e128	34.21988
186	0x4207966e	33.896904
187	0x42064885	33.57082
188	0x4204f756	33.24154
189	0x4203b256	32.924156
190	0x420279df	32.619015
191	0x42012e9a	32.29551
192	0x41ffdffe	31.984371
193	0x41fd7cd8	31.685959
194	0x41fb13e3	31.38471
195	0x41f8a4f2	31.08054
196	0x41f6511e	30.789608
197	0x41f3f79b	30.495901
198	0x41f1983e	30.199337
199	0x41ef5518	29.91655
200	0x41ece9da	29.614185
201	0x41eabe0f	29.342802
202	0x41e869d6	29.051678
203	0x41e6332e	28.77499
204	0x41e3f704	28.495613
205	0x41e1d979	28.231188
206	0x41dfb6cf	27.964262
207	0x41dd8ee1	27.694765
208	0x41db6186	27.422619
209	0x41d95449	27.166155
210	0x41d7420b	26.907248
211	0x41d52aa6	26.645824
212	0x41d334c0	26.400757
213	0x41d112fb	26.134268
214	0x41cf132a	25.884357
215	0x41cd0e5c	25.632011
216	0x41cb2cc0	25.39685
217	0x41c946a3	25.15949
218	0x41c75be6	24.919872
219	0x41c56c64	24.677925
220	0x41c377fb	24.433584
221	0x41c1a8d5	24.207438
222	0x41bfd551	23.979158
223	0x41bdfd4e	23.748684
224	0x41bc20ab	23.515951
225	0x41ba3f45	23.280893
226	0x41b88560	23.065125
227	0x41b6c74f	22.847319
228	0x41b504f3	22.627417
229	0x41b33e2c	22.405357
230	0x41b1a0fb	22.203604
231	0x41afd16e	21.97726
232	0x41ae2c1e	21.771542
233	0x41ac82c8	21.563858
234	0x41aad550	21.354156
235	0x41a953fd	21.16601
236	0x41a79e5e	20.952328
237	0x41a61596	20.76054
238	0x41a45753	20.542639
239	0x41a2c6a3	20.34699
240	0x41a1320e	20.14944
241	0x419fccc5	19.974985
242	0x419e3094	19.77372
243	0x419cc471	19.595919
244	0x419b2032	19.39072
245	0x4199accc	19.209373
246	0x419835dc	19.026299
247	0x4196bb47	18.841444
248	0x419573cc	18.681541
249	0x4193f229	18.493242
250	0x41926c8e	18.303005
251	0x41911b5b	18.138357
252	0x418fc711	17.9722
253	0x418e6f9a	17.804493
254	0x418d14e0	17.635193
255	0x418bb6c8	17.464249
